M CNN | C 7 | B 128 | E 30 | R 50

R 1

Dataset preparation...
Model preparation...
----------------------------------------------------------------
        Layer (type)               Output Shape         Param #
================================================================
            Conv2d-1           [-1, 12, 13, 13]           1,776
       BatchNorm2d-2           [-1, 12, 13, 13]              24
              ReLU-3           [-1, 12, 13, 13]               0
            Conv2d-4             [-1, 32, 9, 9]           9,632
       BatchNorm2d-5             [-1, 32, 9, 9]              64
              ReLU-6             [-1, 32, 9, 9]               0
            Conv2d-7             [-1, 64, 7, 7]          18,496
       BatchNorm2d-8             [-1, 64, 7, 7]             128
              ReLU-9             [-1, 64, 7, 7]               0
           Conv2d-10            [-1, 128, 2, 2]         204,928
      BatchNorm2d-11            [-1, 128, 2, 2]             256
             ReLU-12            [-1, 128, 2, 2]               0
          Flatten-13                  [-1, 512]               0
           Linear-14                  [-1, 256]         131,328
             ReLU-15                  [-1, 256]               0
           Linear-16                    [-1, 7]           1,799
             ReLU-17                    [-1, 7]               0
          Dropout-18                    [-1, 7]               0
          Encoder-19                    [-1, 7]               0
           Linear-20                  [-1, 256]           2,048
             ReLU-21                  [-1, 256]               0
          Dropout-22                  [-1, 256]               0
           Linear-23                  [-1, 512]         131,584
             ReLU-24                  [-1, 512]               0
           Linear-25                  [-1, 256]         131,328
             ReLU-26                  [-1, 256]               0
           Linear-27                    [-1, 4]           1,028
      OutputLayer-28                    [-1, 4]               0
================================================================
Total params: 634,419
Trainable params: 634,419
Non-trainable params: 0
----------------------------------------------------------------
Input size (MB): 0.01
Forward/backward pass size (MB): 0.21
Params size (MB): 2.42
Estimated Total Size (MB): 2.65
----------------------------------------------------------------
Start training...
…
